10 Predictions with sound classifier/cnnnet.pth (torch, 494985 bytes, 10 tensors)

conv1.0.weight f4 [16, 1, 3, 3]
0	0xbe35d3b2	-0.17756537
1	0x3e370f7a	0.17876998
2	0x3e0436ee	0.12911579
3	0xbe5cce77	-0.21563135
4	0xbe3675c9	-0.17818369
5	0x3dcc2afb	0.099691354
6	0x3e54f466	0.20796356
7	0x3e496612	0.19667843
8	0xbeab569a	-0.3346451
9	0x3e63934b	0.22224157
10	0xbe2f01dd	-0.17090555
11	0xbe527075	-0.20550711
12	0xbe9e7bca	-0.3095382
13	0x3e8b4e60	0.27208233
14	0xbe9bc93e	-0.30426973
15	0xbc663fe5	-0.01405332
16	0xbe0a3148	-0.13495362
17	0xbe31aafa	-0.17350379
18	0x3e36305e	0.17791888
19	0xbe9ff85b	-0.31244168
20	0xbd96d056	-0.07363956
21	0x3e0da84a	0.13833728
22	0x3d53aab0	0.051676452
23	0xbcb1a546	-0.021685254
24	0x3e5ee79e	0.21768042
25	0x3d9a29a7	0.07527476
26	0xbeb08b42	-0.34481245
27	0xbbf59e83	-0.0074957027
28	0x3e5a47d9	0.2131647
29	0x3d0b8610	0.0340634
30	0xbca49963	-0.020092672
31	0x3e33d83c	0.17562956
32	0xbdec1800	-0.11528015
33	0xbd994131	-0.074831374
34	0x3e2c9f66	0.1685768
35	0x3e07aee0	0.13250303
36	0xbe53516a	-0.20636526
37	0xbe16d0be	-0.14728066
38	0x3ea4c84d	0.32184067
39	0x3dc5f4ef	0.09665858
40	0x3e572651	0.2101071
41	0xbe0d4d5f	-0.13799046
42	0x3e90d55b	0.28287777
43	0x3c451fd0	0.0120315105
44	0xbda827de	-0.08210729
45	0x3ddea347	0.108709864
46	0xbe604b65	-0.2190376
47	0x3e063387	0.13105594
48	0x3d26dcf5	0.040738065
49	0xbdbdacde	-0.092614874
50	0xbe276988	-0.1634885
51	0x3d873091	0.0660106
52	0x3e717f1b	0.23583643
53	0x3e252da8	0.16130698
54	0x3e4ae1d1	0.19812705
55	0xbdb3e806	-0.08784489
56	0xbe8154b6	-0.25259942
57	0xbd786aac	-0.060648605
58	0xbe484046	-0.19555768
59	0x3cbc9a1c	0.023022704
60	0xbe0caae3	-0.13737063
61	0x3c24e154	0.010063488
62	0xbe1c0e30	-0.15239787
63	0x3d1a37fa	0.03765104
64	0x3e71a378	0.23597515
65	0xbe1ac712	-0.15115002
66	0xbe871818	-0.2638557
67	0x3e4aa4dd	0.19789453
68	0xbcc4b9aa	-0.024014313
69	0x3e05ca08	0.1306535
70	0x3dea2ca5	0.114342965
71	0x3eaadcd1	0.33371595
72	0xbe771879	-0.2413043
73	0x3db1adf0	0.08675754
74	0x3e4962d5	0.19666608
75	0x3e8456f7	0.258476
76	0x3ca70417	0.020387692
77	0xbe820098	-0.25391078
78	0x3e02a461	0.12758018
79	0x3d37760b	0.04479031
80	0x3df58539	0.11988301
81	0xbe9c0ebb	-0.30479988
82	0x3e75c162	0.23999551
83	0x3d21fe96	0.039549433
84	0x3e7120cd	0.23547669
85	0xbe93c2c9	-0.28859547
86	0xbd2704ab	-0.040775936
87	0xbe523104	-0.2052651
88	0x3e8ba735	0.27276006
89	0xbd311360	-0.043231368
90	0xbe93ceeb	-0.28868803
91	0x3d2db984	0.04241325
92	0xbcaa6e02	-0.020804409
93	0x3d8dc35a	0.06922026
94	0x3de8ae3c	0.113613576
95	0x3e490311	0.19630076
96	0x3e796ce7	0.24357949
97	0xbd3903b8	-0.045169562
98	0x3e37ffd4	0.17968684
99	0x3da863c3	0.08222153
100	0xbe211db9	-0.15733995
101	0xbe07e08b	-0.1326925
102	0x3e9b6c45	0.3035604
103	0x3ccb8257	0.024842424
104	0xbdcf13f9	-0.10111231
105	0x3e4c1858	0.19931161
106	0x3d6fd3c2	0.058551557
107	0x3d8cd31f	0.06876206
108	0x3e801ce1	0.25022033
109	0x3e69bfc1	0.22827055
110	0xbc65be9c	-0.014022496
111	0xbe310bba	-0.1728963
112	0x3e56465f	0.20925282
113	0x3d2860a6	0.041107796
114	0x3e934181	0.28760913
115	0xbe8170be	-0.25281328
116	0x3e376cfc	0.17912668
117	0xbe812ce2	-0.25229555
118	0xbd90de8d	-0.07073698
119	0x3e7a1998	0.24423826
120	0xbdd3d79b	-0.10343858
121	0xbe52a7a3	-0.20571761
122	0x3e84d5fa	0.259445
123	0x3dae2fe1	0.08505226
124	0x3e9c041c	0.30471885
125	0xbe7ee351	-0.24891402
126	0xbe39c672	-0.18142107
127	0x3c79b4c5	0.015240853
128	0x3e1738c1	0.14767744
129	0x3ea7c9d9	0.32771185
130	0x3ebb97c2	0.3663922
131	0x3df03f89	0.11730868
132	0x3e8958bf	0.2682552
133	0x3e4e90e7	0.20172463
134	0xbdfbe72f	-0.12299954
135	0xbc8e5c58	-0.017378017
136	0xbe9b01d3	-0.3027483
137	0x3e7026e3	0.23452334
138	0xbe96f03b	-0.29480156
139	0x3df1074f	0.11768972
140	0xbec28384	-0.37990963
141	0x3e9262d9	0.2859104
142	0xbc26080a	-0.010133753
143	0x3d973863	0.07383802

conv1.0.bias f4 [16]
0	0xbcc077ec	-0.023494683
1	0xbe85b1f8	-0.26112342
2	0xbe8b4e63	-0.27208242
3	0xbeac5daf	-0.33665225
4	0xbe1f26b3	-0.15542106
5	0x3d7fb724	0.062430516
6	0x3e7e0f93	0.24810629
7	0x3e1297a0	0.14315653
8	0xbe2a2e50	-0.1661923
9	0xbe86c60a	-0.26322967
10	0x3c80f476	0.015741568
11	0x3c810aa8	0.015752152
12	0x3e3ff843	0.18747048
13	0xbe60048b	-0.21876733
14	0xbeb3549f	-0.35025498
15	0x3e5a8194	0.21338493

conv2.0.weight f4 [32, 16, 3, 3]
0	0xbdcd8849	-0.1003576
1	0x3b4b471b	0.0031017724
2	0x3ce4ddd9	0.027937816
3	0x3cb17370	0.02166149
4	0x3dd1f936	0.10252611
5	0xbc5b6290	-0.013390198
6	0xbd8e5b69	-0.06951029
7	0x3ca2a9b6	0.019856315
8	0xbdc3d8fd	-0.095628716
9	0x3d6b2d2e	0.057416134
10	0xbd39f65a	-0.045400955
11	0xbb91bdb5	-0.0044476637
12	0xbd11efbf	-0.03562903
13	0xbd829f20	-0.06378007
14	0xbcbdf49f	-0.023187933
15	0xbd3196e5	-0.043356795
16	0x3d0eb3f4	0.034839585
17	0xbcaf80df	-0.021423755
18	0xbdaea3db	-0.08527347
19	0xbd3b8d2a	-0.04578892
20	0x3a7d39e9	0.00096598134
21	0xbc30c480	-0.010789037
22	0x3dc8f6f5	0.09812728
23	0x3dbefc7a	0.093255
24	0x3d3bf449	0.045887265
25	0x3de531c3	0.11191132
26	0xbcbf1a19	-0.023327874
27	0xbd64f9be	-0.055902235
28	0xbd326362	-0.04355181
29	0xbca34b55	-0.019933382
30	0xbd23dd94	-0.040006235
31	0x3d2ed42e	0.04268282
32	0x3d3db841	0.046318296
33	0x3ca5c999	0.02023773
34	0x3bcdb055	0.006277124
35	0xbd8aa223	-0.067692064
36	0x3d82c975	0.06386081
37	0xbd67e01d	-0.056610215
38	0x3dc8febe	0.09814213
39	0xbd5a46b5	-0.053290088
40	0x3dfddc4d	0.12395535
41	0xbd25ee46	-0.04051044
42	0x3ceb22f9	0.0287032
43	0x3d0c1405	0.03419878
44	0x3d471dcd	0.048612405
45	0x3dabbdf3	0.08385839
46	0xbc11cdc8	-0.00889916
47	0xbd117b28	-0.03551784
48	0x3c8c78f9	0.017147528
49	0x3d9249bd	0.07142971
50	0xbda1020c	-0.078617185
51	0xbd8b40f8	-0.06799501
52	0x3ce295c9	0.027659314
53	0xbc996c56	-0.018728416
54	0xbd631459	-0.055439327
55	0xbdb35e88	-0.08758265
56	0xbde27b05	-0.1105862
57	0xbd85e508	-0.06537825
58	0xbe41ed25	-0.1893812
59	0x3c2e2a7c	0.010630246
60	0xbcf71f55	-0.030166307
61	0xbd1904be	-0.037358038
62	0xbd719acb	-0.058985513
63	0x3ccb2532	0.02479801
64	0x3c8cae0e	0.01717284
65	0x3cb910fd	0.022591108
66	0x3d56dd3e	0.052457087
67	0x3dce2ebc	0.100675076
68	0xbd2e0acb	-0.04249076
69	0x3d2c5fc0	0.0420835
70	0x3cf6217d	0.030045265
71	0xbdb85f7f	-0.090025894
72	0x3caa3b67	0.020780278
73	0xbc7623a5	-0.015023147
74	0xbc20d983	-0.009817484
75	0x3db7553f	0.08951806
76	0x3da6796c	0.08128628
77	0x3de0d123	0.1097739
78	0x3d7a1fec	0.0610656
79	0x3db632fc	0.08896443
80	0x3da979c5	0.08275179
81	0x3d6c95e7	0.057760146
82	0xbd0ec983	-0.034860145
83	0x3d59ef1e	0.053206556
84	0x3be769ae	0.0070621585
85	0xbbfa87a9	-0.0076455665
86	0xbc65f3f0	-0.01403521
87	0x3dc1ba03	0.09459307
88	0x3db048e3	0.08607652
89	0x3da38da3	0.079859994
90	0xb92c3740	-0.0001642378
91	0x3d10cf69	0.03535405
92	0x3b3acd9e	0.0028503905
93	0x3ce60520	0.028078616
94	0x3ceb4c9f	0.02872306
95	0x3b9ad5ba	0.004725185
96	0x3c470d9c	0.012149241
97	0xbca8b718	-0.020595118
98	0x3d401d32	0.046902843
99	0xbd5875e2	-0.052846797
100	0xbc30d139	-0.01079207
101	0xba27c525	-0.0006399921
102	0x3d9a1ac7	0.075246386
103	0xbc35a087	-0.011085636
104	0x3d9a7be0	0.075431585
105	0x3c5a8055	0.013336261
106	0x3d833427	0.06406432
107	0xbd92b7c1	-0.071639545
108	0xbd154372	-0.036441274
109	0x3dad165f	0.084515326
110	0x3d68df84	0.056853786
111	0x3dadf0b5	0.08493177
112	0xbcbf0861	-0.023319425
113	0x3b9e862b	0.0048377714
114	0xbcd70c2d	-0.026250923
115	0xbc0492aa	-0.008091608
116	0x3d0bf438	0.034168452
117	0xbd94245d	-0.07233498
118	0x3d3bc451	0.04584152
119	0x3c8823d5	0.016618649
120	0x3d1f6c3d	0.038921583
121	0x3ded77de	0.115951285
122	0xbd884dc4	-0.066554576
123	0xbd244b81	-0.04011107
124	0x3d051869	0.032493982
125	0xbd671a6c	-0.056421682
126	0x3dc1f55f	0.09470629
127	0x3cb6aed7	0.022300167
128	0xbc90ab0e	-0.01765969
129	0x3dc919f1	0.09819401
130	0x3d486d64	0.048932448
131	0x3dc50bce	0.09621392
132	0x3d704750	0.05866176
133	0x3c7f5cc3	0.015586081
134	0x3d26366e	0.040579252
135	0xbe114506	-0.14186487
136	0xbd04ba0f	-0.032404
137	0xbcd613ad	-0.026132429
138	0xbdd91b3b	-0.10600897
139	0xbc858694	-0.016299523
140	0xbd5a0701	-0.053229336
141	0x3c8b3fcf	0.0169982
142	0xbc828847	-0.015934123
143	0xbd994ab3	-0.07484951
144	0x3c300c0c	0.01074506
145	0xbd8ac4af	-0.06775796
146	0x3c959f9d	0.018264586
147	0xbd8cc184	-0.06872848
148	0x3dbdf897	0.092759304
149	0x3cdae089	0.026718395
150	0x3d7f2b00	0.062296867
151	0x3b962221	0.004581705
152	0x3cd94f59	0.026527094
153	0xbd2b2b9a	-0.04178963
154	0x3c42c803	0.011888507
155	0x3ad31a79	0.0016105912
156	0x3d8047eb	0.06263717
157	0x3d8b2039	0.06793255
158	0xbbf3b59e	-0.007437422
159	0xbcbc80bf	-0.02301061
160	0xbc57fa35	-0.013182213
161	0x3d3a9b6f	0.04555839
162	0x3d7bd1bb	0.06147931
163	0x3b87f317	0.0041488516
164	0x3cbc804b	0.023010394
165	0xbbc0576b	-0.005869796
166	0x3b4e9ea4	0.0031527663
167	0x3d1134cc	0.03545074
168	0xbcfb58f5	-0.030682066
169	0x3ce417c6	0.027843367
170	0x3dbba702	0.091627136
171	0x3ac29103	0.0014844242
172	0x3d564cc2	0.052319296
173	0x3ce33965	0.027737329
174	0x3d79d549	0.06099442
175	0x3dcd9f22	0.10040118
176	0x3d97001a	0.07373066
177	0xbd44da78	-0.04805991
178	0xbcd8feed	-0.026488746
179	0x3ceaae40	0.028647542
180	0xbd864a9c	-0.06557199
181	0xbd04da47	-0.032434728
182	0x3dda2875	0.10652248
183	0xbd91686f	-0.07099997
184	0x3d4b9065	0.049698252
185	0xbc9bd487	-0.01902224
186	0xbd9305dd	-0.07178853
187	0x3c9274b7	0.01787792
188	0x3d72060d	0.0590878
189	0xbbf615f6	-0.007509942
190	0x3d4a5cce	0.04940491
191	0x3c42f0c7	0.011898226
192	0x3c2d200a	0.010566721
193	0x3d8f34a1	0.0699246
194	0x3bd300b9	0.006439295
195	0xbd22b15a	-0.039719917
196	0x3b88595d	0.0041610436
197	0x3d8828bf	0.06648397
198	0xbd413ac1	-0.047175173
199	0xbe0ffbde	-0.14060923
200	0xbdc3443b	-0.09534498
201	0xbe0475b6	-0.12935528
202	0xbe1649bf	-0.1467657
203	0xbd758e5e	-0.059950225
204	0xbc5571ba	-0.013027603
205	0xbdce90a5	-0.100861825
206	0xbd29cd24	-0.041455403
207	0x3da9b3c4	0.08286241
208	0x3a9f8ecf	0.0012173298
209	0x3cef7c28	0.029234007
210	0x3da602e0	0.08106017
211	0x3c8cf6dd	0.017207557
212	0x3d424333	0.047427367
213	0xbd89a98f	-0.06721794
214	0xbd130c05	-0.035900135
215	0x3cb99c34	0.022657491
216	0xbc3af6af	-0.011411353
217	0xbd3b5806	-0.045738243
218	0xbce102f6	-0.027467232
219	0x3da80ace	0.08205186
220	0x3dbf7a9a	0.09349556
221	0x3d601ebb	0.054716807
222	0x3d0165d1	0.03159124
223	0xbcb4ca4d	-0.02206912
224	0xbd655a8a	-0.055994548
225	0x3cd9c6ca	0.026584048
226	0x3c97c323	0.018525666
227	0xbc987d8c	-0.018614553
228	0x3d9702be	0.0737357
229	0x3dcd4e91	0.10024751
230	0x3cb3027a	0.021851767
231	0xbc888fc6	-0.016670119
232	0x3dbe0aa2	0.09279372
233	0xbd5175a0	-0.051137567
234	0x3da7e2ce	0.081975564
235	0x3d2a3c4d	0.041561414
236	0x3d0ba8be	0.034096472
237	0x3cc8cee2	0.024512712
238	0x3cab4094	0.020904817
239	0x3d7a4404	0.06110002
240	0x3d6d7415	0.057972033
241	0x3c969a13	0.018384015
242	0xbc84f994	-0.01623229
243	0xbd3ded11	-0.046368662
244	0x3aaee4b4	0.0013343305
245	0x3bb3b8f0	0.0054846928
246	0xbcece424	-0.02891738
247	0x3da6dc77	0.08147519
248	0xbca51c1b	-0.020155003
249	0x3c9a94f5	0.018869856
250	0x3d724df3	0.05915637
251	0x3b8ae452	0.0042386437
252	0xbd3c3e63	-0.045957934
253	0x3d5e9b4c	0.05434732
254	0xbd41240d	-0.04715352
255	0xbcf636fb	-0.030055514

conv2.0.bias f4 [32]
0	0xbdb6214c	-0.088930696
1	0x3a07745b	0.00051671796
2	0xbd3f45b9	-0.046697352
3	0xbd755890	-0.059898913
4	0x3da7736d	0.081763126
5	0xbd8ef56c	-0.06980404
6	0x3e2a6c93	0.1664298
7	0xbceae689	-0.02867438
8	0x3d641470	0.055683553
9	0xbcc8d1a8	-0.024514034
10	0xbd7e7293	-0.062120985
11	0xbd37ee99	-0.04490528
12	0x3d1ad136	0.037797175
13	0xbe03e0a5	-0.12878664
14	0x3b3d9443	0.0028927482
15	0xbd3614f2	-0.04445357
16	0xbb9d6888	-0.004803721
17	0xbd0b7db5	-0.03405543
18	0x3c4b2378	0.012398593
19	0xbd3a8518	-0.045537084
20	0xbca7bf51	-0.020476969
21	0xbd179fe6	-0.037017725
22	0xbc26023f	-0.010132371
23	0xbd76a1a0	-0.06021273
24	0xbe15553f	-0.145833
25	0xbddcd0e5	-0.10782031
26	0xbd4ae95c	-0.049538955
27	0xbd14dcbd	-0.036343325
28	0xbd84ea10	-0.064899564
29	0xbdb0cd1f	-0.08632874
30	0x3d558839	0.052131865
31	0x3c1eb5ee	0.00968693

conv3.0.weight f4 [64, 32, 3, 3]
0	0x3d15dc45	0.03658702
1	0xbce07ecc	-0.027404211
2	0xbc825e4e	-0.015914109
3	0xbd0dc1b4	-0.034608558
4	0x3d110236	0.0354025
5	0x3ceaa957	0.0286452
6	0xbbf46974	-0.00745886
7	0x3c3f1d79	0.011664742
8	0xbc1858d0	-0.009298518
9	0xbd855029	-0.0650943
10	0x3bac6d43	0.0052620484
11	0xbd86db71	-0.06584824
12	0x3cec2292	0.028825078
13	0x3ad98660	0.0016595833
14	0xbd426cca	-0.04746703
15	0x3cfff54a	0.031244893
16	0xbcdcdd43	-0.026960975
17	0xbd0bd53a	-0.034138896
18	0x3c798644	0.015229765
19	0x3c9cd164	0.019142814
20	0xbd76e23a	-0.06027434
21	0xbd1b5a04	-0.037927642
22	0xbd781e27	-0.06057563
23	0xbbdcc50e	-0.006737358
24	0xbd0884db	-0.033329826
25	0x3cda2aa9	0.02663167
26	0x3d209e15	0.03921326
27	0xbd066b8c	-0.03281741
28	0x3d09fc86	0.03368809
29	0x3cb14b80	0.021642447
30	0xbd442f0e	-0.047896437
31	0x3d3e91a5	0.046525616
32	0xbcfd4e4c	-0.030921124
33	0xbd685e94	-0.05673082
34	0xbd6bf65e	-0.057608
35	0x3cc93110	0.024559528
36	0xbcc49050	-0.023994595
37	0xb8d5073d	-0.0001015798
38	0x3c30e485	0.010796671
39	0x3c9723bf	0.018449662
40	0xbd3a33af	-0.045459446
41	0x3ce0e2c4	0.02745188
42	0x3cbe966f	0.023265092
43	0x3d108031	0.035278503
44	0x3d2e0585	0.042485733
45	0xbc912cad	-0.017721498
46	0x3cf98e9c	0.03046351
47	0xbb46934b	-0.0030300196
48	0xbc9e72e5	-0.019341895
49	0xbd82c387	-0.0638495
50	0xbd1cc980	-0.038278103
51	0xbc166964	-0.0091804005
52	0xbd4caeb5	-0.0499713
53	0xbd17470b	-0.036932986
54	0xbd7f5cfd	-0.06234454
55	0xbd33bfaf	-0.043883976
56	0x3c5a421d	0.013321427
57	0xbd779eb3	-0.06045408
58	0xbd1f4e58	-0.038893074
59	0xbc933068	-0.017967418
60	0x3d83f874	0.06443873
61	0xbd43d73c	-0.047812685
62	0xbd1e8327	-0.038699295
63	0x3c62f462	0.013852211
64	0xbd20d681	-0.039267067
65	0xbd17bda3	-0.037046086
66	0xbd140109	-0.0361338
67	0xbd336bd2	-0.043803997
68	0x3d858159	0.06518812
69	0xbd71e13f	-0.059052702
70	0x3d116eff	0.035506245
71	0xbc7ed8d3	-0.015554625
72	0xbd379b54	-0.044825867
73	0x3cf2edfb	0.029654494
74	0x3d338d26	0.04383578
75	0xbd38e1ad	-0.045137096
76	0x3d101ef8	0.035185784
77	0xba04cd75	-0.0005066016
78	0x3d505b86	0.050868534
79	0x3ceb8437	0.028749568
80	0xbca8052c	-0.020510279
81	0x3cd12aa3	0.025533026
82	0xbd357a92	-0.044306345
83	0x3d08b0d4	0.03337176
84	0xbd639517	-0.055562105
85	0xbce4465a	-0.027865577
86	0x3cb40303	0.021974092
87	0xbd06bd02	-0.032895096
88	0x3a42d48d	0.0007432185
89	0xbd3a0045	-0.045410413
90	0x3a7ebae0	0.00097171776
91	0x3d0ed6f6	0.03487297
92	0x3ae7d852	0.001768837
93	0x3cf4b107	0.02986957
94	0xbcad7d23	-0.021177834
95	0x3ce3845a	0.027773071
96	0x3c61ee8c	0.013789784
97	0xbd872757	-0.065993
98	0x3d0cc1d1	0.034364525
99	0xbd4be5ac	-0.04977958
100	0xbc25c541	-0.01011783
101	0x3d20048e	0.039066844
102	0xbd7eaf2d	-0.06217878
103	0xbc074648	-0.008256502
104	0xbd088193	-0.033326697
105	0xbc7eddd4	-0.015555818
106	0x3d818b91	0.06325448
107	0xbcf2e424	-0.029649802
108	0x3ca6da41	0.020367743
109	0xbd814b4f	-0.06313192
110	0xbd63d8b5	-0.05562659
111	0x3cecb9a2	0.02889711
112	0x3b8ff105	0.0043927454
113	0xbcb42976	-0.021992426
114	0xbd801fbb	-0.06256052
115	0xbd567358	-0.052356094
116	0x3cda4c2d	0.026647652
117	0xbba2d581	-0.0049692993
118	0x3d2071a0	0.03917086
119	0xbcc73d26	-0.02432115
120	0xbce77b56	-0.028257053
121	0x3d8a1321	0.0674193
122	0x3d2ae720	0.041724324
123	0x3ca9e967	0.020741178
124	0x3d942040	0.07232714
125	0xbd1c10ef	-0.038102087
126	0xbc1cac13	-0.00956251
127	0xbcd90bfe	-0.026494976
128	0xbb156820	-0.002279766
129	0xbd0213de	-0.031757228
130	0xbcd7a9fd	-0.026326174
131	0xbcaccd13	-0.02109388
132	0xbc6aa8eb	-0.0143225
133	0xbcc05220	-0.02347666
134	0xbc31a192	-0.010841744
135	0x3cba11e9	0.022713618
136	0xbcd5110d	-0.026009107
137	0x3bb6988f	0.0055723856
138	0x3b0b2a0b	0.0021234776
139	0xbc943a4b	-0.018094203
140	0xbcdd916c	-0.027046882
141	0xbd4b50d1	-0.04963762
142	0x3c8ca514	0.01716856
143	0xbb8e47b4	-0.004342044
144	0xbcb0e4a5	-0.021593401
145	0x3cdc6467	0.026903344
146	0x3b7fe77b	0.0039047885
147	0x3bee4428	0.0072713085
148	0xbd2f5467	-0.0428051
149	0xbd260b18	-0.040537924
150	0x3bde094c	0.0067760106
151	0x3d0ebaad	0.034845997
152	0x3d07ce6e	0.03315585
153	0x3c9c55f8	0.019083962
154	0xbd80b638	-0.062847555
155	0xbce9834b	-0.028504988
156	0xbae82dc9	-0.001771384
157	0x3d02a437	0.03189489
158	0x3cd26d99	0.025687026
159	0xbd59c1fe	-0.05316352
160	0xbd450159	-0.04809699
161	0xbbb9e9cb	-0.0056736222
162	0x3b3b2379	0.002855508
163	0x3d1108e6	0.035408877
164	0x3c35824c	0.0110784285
165	0x3ca6600e	0.020309474
166	0x3c5f1cdf	0.013617723
167	0xbd4d693b	-0.050149184
168	0x3d2cd7dd	0.04219805
169	0xbd48a8e1	-0.04898918
170	0x3af44b48	0.0018638158
171	0xbd2dd655	-0.04244073
172	0xbd83f0da	-0.06442423
173	0xbd50a209	-0.05093578
174	0xbca8cc98	-0.02060537
175	0xbc750201	-0.014954091
176	0xbaa2e677	-0.0012428303
177	0xbcd3cad0	-0.025853544
178	0x3c740119	0.01489284
179	0xbcb753da	-0.02237885
180	0x3d46b3c6	0.04851129
181	0xbd0203a4	-0.031741753
182	0x3d3598ce	0.04433518
183	0xbcf0930f	-0.029366998
184	0xbc24e059	-0.010063254
185	0xbd236a05	-0.03989603
186	0xbd2ea483	-0.04263736
187	0x3d5210af	0.051285442
188	0x3b766dee	0.0037602144
189	0x3d014ff9	0.03157041
190	0xbd8f8b1b	-0.07008954
191	0xbd002fbf	-0.031295534
192	0x3c6dd4d2	0.014516072
193	0xbcb51307	-0.0221038
194	0xbc1e0ba8	-0.009646334
195	0x3ce69e5d	0.028151685
196	0xbd85264e	-0.06501447
197	0x3cbdd5d5	0.023173252
198	0x3d19d843	0.03755976
199	0xbd652a76	-0.055948697
200	0xbd74b894	-0.05974634
201	0xbd81ff6c	-0.06347546
202	0xbd8b39fd	-0.0679817
203	0xbd809eec	-0.06280312
204	0xbd3952a9	-0.045244846
205	0x3c9adc18	0.018903777
206	0x3d097f7d	0.033568848
207	0xbcd6324f	-0.026147036
208	0xbd301560	-0.042989135
209	0x3d186a77	0.037210908
210	0xbd3893aa	-0.0450627
211	0xbd63df96	-0.05563315
212	0xbc0fc617	-0.008775256
213	0xbd259dc7	-0.04043367
214	0xbd36d82c	-0.04463975
215	0xbc81cb78	-0.015844092
216	0xbd72e381	-0.059298996
217	0x3c6327ba	0.013864452
218	0xbd354eb0	-0.044264495
219	0xbd8a63e4	-0.06757334
220	0xbd41cfd7	-0.047317352
221	0xbb9600fd	-0.0045777545
222	0xbd86272d	-0.06550441
223	0x3c38a001	0.011268617
224	0xbae265ed	-0.0017272808
225	0x3cff6bc8	0.031179324
226	0x3ce03fcd	0.027374173
227	0x3c8818de	0.01661342
228	0x3ce071fc	0.027398102
229	0x3d363817	0.044487085
230	0x3c7ae1bf	0.015312611
231	0xbc52933b	-0.012852485
232	0xbd024ec5	-0.0318134
233	0x3d0f7e33	0.035032462
234	0x3d01bee2	0.03167618
235	0xbd62ec17	-0.055400934
236	0x3d306875	0.043068368
237	0xbb8dfb30	-0.0043329224
238	0xbcef1f5e	-0.029189762
239	0xbd4a2ec5	-0.04936101
240	0x3cde1883	0.027111297
241	0x3c5dfc5a	0.013548935
242	0x3c25f6b3	0.010129618
243	0xbd095bca	-0.033534802
244	0x3b91ecee	0.004453293
245	0x3d382c64	0.04496421
246	0xbd2fc3bd	-0.04291128
247	0xba099375	-0.0005248108
248	0xbbcd349c	-0.006262375
249	0x3caba5b6	0.02095304
250	0x3d0b8309	0.03406051
251	0x3d32c33b	0.043643218
252	0x3c35cc27	0.011096037
253	0xbc34f835	-0.011045505
254	0x3c7d983f	0.015478193
255	0x3d178a80	0.03699732

conv3.0.bias f4 [64]
0	0x3daa1a1e	0.08305763
1	0xbd0b065d	-0.033941615
2	0xbd81c4d0	-0.06336367
3	0xbdce731e	-0.100805506
4	0xbcda65da	-0.026659895
5	0xbcf9229c	-0.03041201
6	0xbd14b1ef	-0.036302503
7	0xbb083652	-0.002078433
8	0xbcb31953	-0.021862661
9	0xbdbdf53e	-0.09275292
10	0xbd157f66	-0.03649845
11	0xbd67fd21	-0.056637887
12	0xbd1b4de6	-0.037916087
13	0xbd5a7d98	-0.05334243
14	0xbd661d25	-0.05618014
15	0x3d7150e1	0.058915023
16	0xbd76b9a5	-0.06023564
17	0xbd0eae7a	-0.034834363
18	0xbbd9b12a	-0.006643434
19	0xbdb60fac	-0.08889708
20	0xbc37ad3a	-0.011210734
21	0xbda29e66	-0.07940368
22	0xbde9adf7	-0.11410134
23	0xbd09e6eb	-0.033667486
24	0xbd739a00	-0.059473038
25	0xbdb82c07	-0.089927725
26	0xbd0fad2b	-0.035077255
27	0xbd8255de	-0.06364034
28	0xbd81b912	-0.063341275
29	0x3e2b92c2	0.16755202
30	0xbdbd087f	-0.09230136
31	0xbcb4b880	-0.022060633
32	0xbd1209fc	-0.035654053
33	0x3cca1bab	0.024671396
34	0x3c48bff9	0.012252801
35	0xbd9159f6	-0.07097237
36	0x3e2a3662	0.16622308
37	0x3ad61a01	0.0016334654
38	0xbca7a31a	-0.020463515
39	0xbba0928c	-0.0049002822
40	0xbd4f0be2	-0.05054844
41	0x3c569fe0	0.013099641
42	0xbd1317a2	-0.03591121
43	0xbd9a2ce5	-0.07528094
44	0xbe1ce709	-0.15322508
45	0x3e17f8fa	0.14841071
46	0xbd05d06c	-0.03266947
47	0xbc404f32	-0.011737632
48	0xbddddb6f	-0.10832869
49	0xbdac1607	-0.08402639
50	0x3d96187f	0.07328891
51	0xbd4f0386	-0.05054047
52	0x3d9a1db1	0.075251944
53	0xbc95d4ae	-0.01828989
54	0xbcbcc87b	-0.023044815
55	0xbd53cb37	-0.051707473
56	0xbe0d24e6	-0.13783607
57	0xbc8ec5a1	-0.017428221
58	0xbd91fd4d	-0.071283914
59	0xbd364b47	-0.044505384
60	0x3d0c752d	0.034291435
61	0x3dbed63b	0.09318205
62	0xbd454a23	-0.048166405
63	0xbd44bade	-0.048029773

conv4.0.weight f4 [128, 64, 3, 3]
0	0x3b3e5ef1	0.0029048289
1	0xbce6825e	-0.028138336
2	0x3d18f352	0.037341423
3	0xbcb5e8df	-0.022205768
4	0xbd2bb4f4	-0.041920617
5	0xbca344bb	-0.019930234
6	0xbd1e189f	-0.0385977
7	0x3c19beca	0.009383867
8	0xbcf0582d	-0.02933892
9	0x3ca2a29d	0.01985293
10	0xbcfcb117	-0.030846162
11	0xbcdb9636	-0.026805025
12	0x3cc758e7	0.024334384
13	0xbcd1ffe2	-0.02563471
14	0x3ca052f9	0.019570814
15	0xbba51d90	-0.0050389245
16	0xbd23a852	-0.039955445
17	0xbd051b78	-0.0324969
18	0x3bc49912	0.0059996927
19	0x3cef7651	0.029231222
20	0x3cbd354c	0.023096703
21	0xbc439398	-0.011937045
22	0x3ba46647	0.005017075
23	0x3b9a6da7	0.0047127786
24	0xbc1262d2	-0.008934693
25	0x3c8094c6	0.01569594
26	0x3bfd05b5	0.0077216276
27	0xbd238bf5	-0.039928395
28	0xbd0c06d0	-0.034186184
29	0xbd146f48	-0.03623894
30	0xbbe2e3e1	-0.006924138
31	0xbb73af2f	-0.0037183275
32	0xbc27b9e9	-0.0102371955
33	0x3c954449	0.018221037
34	0x3bf5395a	0.0074836435
35	0x3cd01974	0.025402762
36	0xbc8ba903	-0.017048365
37	0x3c736e6d	0.0148578705
38	0xbc51d034	-0.012805987
39	0x3c06d313	0.008229035
40	0xbd084f85	-0.03327896
41	0xbc285ee0	-0.010276526
42	0xbd365179	-0.044511292
43	0x3b4a856b	0.0030902277
44	0x38b8b2ff	8.807144e-05
45	0xbc36d18c	-0.011158358
46	0xbba82ce7	-0.005132306
47	0x3cf05996	0.029339593
48	0xbc7ed318	-0.015553258
49	0x3cd2681f	0.025684414
50	0x3cf4ed77	0.029898388
51	0xbd3c5694	-0.045981005
52	0x3be75823	0.0070600673
53	0x3cdf34f8	0.027246937
54	0x3cde657f	0.027148006
55	0xbb16e303	-0.0023023493
56	0xbc22ff6e	-0.0099485945
57	0xbd120d64	-0.0356573
58	0x3cebb3b2	0.028772209
59	0x3c8a33c4	0.016870387
60	0xbca90035	-0.020629982
61	0x3ce82414	0.028337516
62	0x3ce9f265	0.028557966
63	0x3b9e636c	0.0048336294
64	0xbac004d0	-0.0014649872
65	0x3cf4bb5a	0.029874492
66	0x3cd55744	0.026042588
67	0xbce768d4	-0.028248228
68	0x3c4f1129	0.012638369
69	0xbccf338e	-0.025293138
70	0xba316605	-0.0006767216
71	0x3c6fd7e8	0.014638878
72	0x3cd26fc1	0.025688054
73	0xbb1db650	-0.0024064966
74	0xbb76b5c2	-0.0037644957
75	0x3d120ff4	0.035659745
76	0x3cc9e0e5	0.02464337
77	0xbc0f56b4	-0.008748699
78	0xbd26042d	-0.040531326
79	0x3ce292f7	0.027657969
80	0xbbcb1066	-0.006197023
81	0x3c9ab991	0.018887313
82	0x3c3831ac	0.011242311
83	0xbd04a7dc	-0.032386646
84	0x3bdb0ee5	0.006685125
85	0xbd0130cb	-0.031540673
86	0xba2af914	-0.0006522101
87	0x3d13889c	0.036018953
88	0xbd061e8e	-0.032743983
89	0x3d025582	0.031819828
90	0x3ce76838	0.028247938
91	0xbcbabc98	-0.022795007
92	0xbc93b8ac	-0.018032394
93	0xbd2dcf90	-0.042434275
94	0xbc27bb15	-0.010237475
95	0xbd23ad85	-0.039960403
96	0xbd0f68a9	-0.03501192
97	0x3d17dc3a	0.03707526
98	0xbb9e8ac9	-0.004838322
99	0xbccf17fe	-0.025279995
100	0x3c3a1d7d	0.01135957
101	0xbcaf41c3	-0.021393662
102	0x3ca320c4	0.019913085
103	0x3ca8950a	0.02057888
104	0xbd16770a	-0.03673462
105	0xbd9b4de9	-0.075832196
106	0xbd83f857	-0.064438514
107	0xbd0ab9fa	-0.033868767
108	0xbcc41701	-0.02393675
109	0xbc8ef0a3	-0.017448729
110	0xbbefa39e	-0.007313206
111	0xbaf1122c	-0.0018392256
112	0xbc519892	-0.012792723
113	0xbbd9b5f6	-0.006644006
114	0x3cefbd48	0.029265061
115	0x3cbdb686	0.023158323
116	0x3c91cad4	0.017796911
117	0xbd10792e	-0.035271816
118	0x3c5a1126	0.013309753
119	0xbd0b1428	-0.03395477
120	0xbcd7292c	-0.02626475
121	0xbc029187	-0.007969267
122	0x3d0bca4f	0.034128483
123	0xbbedb722	-0.007254497
124	0x3c90ef55	0.017692247
125	0x3d1cc620	0.038274884
126	0x3c237c3c	0.00997835
127	0x3d1136e9	0.035452757
128	0x3d35bf2a	0.04437176
129	0x3c4ec7f0	0.012620911
130	0xbcdb5242	-0.026772622
131	0x3c230959	0.009950959
132	0x3cb1739b	0.02166157
133	0xbd176edc	-0.036970958
134	0x3c9a1fca	0.018813986
135	0xbd29b2b0	-0.041430175
136	0xbbb83c3a	-0.005622414
137	0xbc930b8b	-0.01794984
138	0xbd185f09	-0.037200008
139	0xbcb80e59	-0.022467779
140	0xbc6397a3	-0.0138911335
141	0xbd2a160c	-0.04152493
142	0xbc72c411	-0.014817254
143	0xbd36792d	-0.044549156
144	0x3c554b42	0.013018431
145	0x3c3db8eb	0.011579732
146	0xbc5431ee	-0.012951357
147	0x3c8c537b	0.01712965
148	0x3bf67356	0.0075210733
149	0xbd32c740	-0.04364705
150	0x3d01d6c7	0.03169897
151	0x3ce43f32	0.027862165
152	0x3ca088a9	0.019596415
153	0xbce9251c	-0.028460078
154	0x3d263247	0.040575292
155	0x3c98a961	0.018635454
156	0xbadbd9c1	-0.001677327
157	0xbc1ecae8	-0.009691931
158	0xbc364650	-0.011125162
159	0xbc811312	-0.015756164
160	0xbbdc9ff3	-0.0067329346
161	0xbcde421c	-0.027131133
162	0xbce55c75	-0.027998189
163	0x3d0f20b1	0.034943286
164	0x3d028b68	0.03187123
165	0x3d0306e5	0.031988997
166	0x3c86ecfb	0.016470423
167	0x3a70da7a	0.0009187829
168	0x3d00691f	0.03135025
169	0x3c60f146	0.013729399
170	0x3d3e0bc8	0.046397954
171	0xbcb66f52	-0.022269879
172	0x3c1cf092	0.009578841
173	0x3a76c0e6	0.00094128994
174	0xbd0bc9d1	-0.034128014
175	0x3b8093dc	0.003923876
176	0xbd01fa69	-0.03173295
177	0x3c6fdfc3	0.014640751
178	0xbb433851	-0.0029788206
179	0xbabbef5b	-0.0014338301
180	0x3d19cda3	0.037549626
181	0x3c3f9138	0.011692338
182	0xbb84d6d7	-0.004053931
183	0x3b9cccf9	0.004785177
184	0xbd364eb1	-0.04450864
185	0x3ca0c4c3	0.019625073
186	0xbb072f55	-0.0020627577
187	0xbc6ee074	-0.014579881
188	0x3caf191a	0.021374274
189	0xbc7e986f	-0.015539273
190	0x3bc1b80f	0.005911834
191	0xbce5aa76	-0.028035384
192	0xbcf5e48a	-0.030016202
193	0x3c8ac4e9	0.016939597
194	0xbcdfc2fa	-0.027314652
195	0x3caf3368	0.021386817
196	0xbd1904d4	-0.03735812
197	0x3c2f7c4c	0.010710787
198	0x3ca1041c	0.01965528
199	0x3cdf98a4	0.027294464
200	0x3cf5c1df	0.029999672
201	0xbd0a7a4c	-0.033808038
202	0x3b988bda	0.0046553435
203	0xb8b41be7	-8.588266e-05
204	0xbb38050d	-0.0028079182
205	0x3d186ed2	0.03721506
206	0xbd1de9ac	-0.038552925
207	0xbd449c96	-0.048000894
208	0xbcac9e25	-0.021071503
209	0xbce9207e	-0.028457876
210	0xbd1a039f	-0.03760111
211	0xbd1ab67f	-0.037771698
212	0x3c35b0e5	0.011089538
213	0xbd2f71e3	-0.04283322
214	0xbb393420	-0.0028259829
215	0xbd39047d	-0.045170296
216	0xbcbb4d84	-0.02286411
217	0xbc7f78de	-0.015592782
218	0x3c32471b	0.010881211
219	0xbd31a0f0	-0.043366373
220	0xbcdf16f0	-0.027232617
221	0xbce88985	-0.028385887
222	0x3c1fedd5	0.009761293
223	0x3cceb623	0.025233334
224	0xbb8bc981	-0.0042659645
225	0xbccd367e	-0.025050398
226	0xbceeabd9	-0.029134678
227	0xbc7c24b7	-0.015389613
228	0xbcb0d050	-0.021583706
229	0xbc8ebc4c	-0.017423771
230	0x3c727f58	0.014800869
231	0xbc9da844	-0.019245274
232	0x3cffda7a	0.031232107
233	0xbcad8a08	-0.021183982
234	0x3cbf1210	0.023324043
235	0x3d013fe2	0.031555064
236	0xbc970811	-0.018436464
237	0xbcc7548f	-0.024332313
238	0xbd1bb5ca	-0.038015164
239	0x3cc299b2	0.023754928
240	0xbd263069	-0.04057351
241	0x3c0e4c90	0.008685246
242	0xbbfd658b	-0.007733052
243	0xbc8032d3	-0.015649235
244	0xbd1624e5	-0.03665628
245	0x3c959384	0.018258817
246	0x3d229eb3	0.03970213
247	0x3bafbd33	0.0053631305
248	0xbcb6cd2d	-0.022314632
249	0xbcc4763d	-0.023982162
250	0xbc63f007	-0.013912207
251	0xbc43ac23	-0.011942896
252	0x3cc73ce3	0.024321025
253	0xbca5f380	-0.020257711
254	0x3c9023b8	0.017595157
255	0x3cb12a49	0.021626608

conv4.0.bias f4 [128]
0	0xbd2aac36	-0.04166814
1	0x3e199ece	0.15001985
2	0x3c4c3f7c	0.012466308
3	0xbcd4ab06	-0.025960457
4	0x3d0ea22a	0.03482262
5	0xbc385f29	-0.011253157
6	0xbdac8ac3	-0.08424904
7	0xbd42a9f3	-0.047525357
8	0x3d584439	0.052799437
9	0xbcf7e21a	-0.03025918
10	0xbd542090	-0.051788867
11	0x3bcb75ca	0.00620911
12	0xbda6fdf9	-0.0815391
13	0xbc952e0a	-0.01821043
14	0xbda9a108	-0.082826674
15	0x3cdccd43	0.026953345
16	0x3dba3c0f	0.090934865
17	0xbc358f7b	-0.011081572
18	0xbc97ef96	-0.01854686
19	0x3d1ab50b	0.037770312
20	0xbd793288	-0.060839206
21	0xbd54e4ba	-0.051975943
22	0xbd305d3b	-0.04305766
23	0xbd9b9d30	-0.075983405
24	0xbce301f7	-0.027710898
25	0xbdb71acc	-0.08940658
26	0x3db82c20	0.08992791
27	0xbd50ed44	-0.051007524
28	0xbd503cf7	-0.05083939
29	0x3d9dfd56	0.077143356
30	0xbd24abd9	-0.04020295
31	0xbc31f3d5	-0.010861357
32	0xbc895ede	-0.016768869
33	0x3c43a378	0.011940829
34	0xbc814752	-0.015781078
35	0xbca5e279	-0.020249592
36	0xbd1a85ea	-0.037725367
37	0xbcda3e3c	-0.026641004
38	0xbc90f133	-0.017693138
39	0xbd30064a	-0.042974748
40	0xbb128168	-0.0022354964
41	0x3e1f81c6	0.15576848
42	0xbdaa1c39	-0.08306164
43	0x3d324e3f	0.043531653
44	0xbd891ea9	-0.06695301
45	0xbda88a96	-0.08229558
46	0x3d5c9ece	0.053862385
47	0x3cbff50c	0.023432277
48	0xbd0a59f0	-0.033777177
49	0xbd677e56	-0.056516968
50	0x3e001fdb	0.12512152
51	0x3e008716	0.12551531
52	0xbd51ea14	-0.051248625
53	0x3dd07d17	0.10180109
54	0xbd2b5c3e	-0.041836016
55	0xbd17310b	-0.036912005
56	0x3e0eab9b	0.1393265
57	0xbcc53cc0	-0.02407682
58	0xbd81e63a	-0.0634274
59	0xbdb3b681	-0.08775044
60	0x39894376	0.0002618094
61	0x3d30a7d8	0.04312882
62	0x3ba899c8	0.0051452853
63	0xbcc9f0fc	-0.024651043
64	0xbccc6e57	-0.024954958
65	0x3c58f5d1	0.013242201
66	0xbd93076b	-0.07179149
67	0xbd56ba2c	-0.05242364
68	0xbcc5e8e3	-0.0241589
69	0xbd7708f6	-0.06031128
70	0x3d632a10	0.055460036
71	0x3ddccf1d	0.10781691
72	0x3cf95ddf	0.030440269
73	0xbdb8fc03	-0.090324424
74	0xbc532b5c	-0.012888756
75	0x3d9d18dd	0.07670758
76	0x3da2effa	0.07955928
77	0x3db81bb2	0.089896575
78	0xbd5dd768	-0.054160506
79	0x3e2d56a7	0.16927586
80	0xbd988fda	-0.074493125
81	0x3b80fa19	0.003936064
82	0xbd89d6bb	-0.0673041
83	0x3dd01477	0.10160153
84	0xbc071d3c	-0.008246716
85	0xbcf08527	-0.029360367
86	0x3df8dc3d	0.12151382
87	0x3d8dccbe	0.06923817
88	0xbd2373d9	-0.039905403
89	0xbd138439	-0.03601477
90	0x3db2a1f1	0.08722294
91	0x3c673064	0.014110658
92	0xbd15c5e9	-0.036565695
93	0xbbf48c79	-0.0074630347
94	0x3bd8919a	0.006609154
95	0xbc6f599d	-0.014608768
96	0xbd0ce5b9	-0.034398768
97	0x3c813d52	0.01577631
98	0x3bee588f	0.0072737406
99	0xbd05fc85	-0.032711525
100	0xbc48207e	-0.012214778
101	0xbd98b82b	-0.07457002
102	0x3e1a3054	0.15057498
103	0xbd7b6a9b	-0.061380964
104	0xbd2433fe	-0.040088646
105	0xbd713265	-0.05888595
106	0xbd15286d	-0.036415506
107	0xbd1620f6	-0.036652528
108	0xbd1928f9	-0.03739259
109	0xbd39c8f5	-0.045357663
110	0x3ce2d7e2	0.027690832
111	0xbd2b5143	-0.041825544
112	0xbbbe5452	-0.0058083916
113	0x3d194d6f	0.037427362
114	0x3d6677d1	0.05626661
115	0x3e13d47e	0.14436528
116	0xbd62a973	-0.05533738
117	0x3d13bc06	0.036067985
118	0xbcec0733	-0.028812027
119	0x3e1e14c1	0.15437604
120	0xbcd6d6e4	-0.026225515
121	0xbc2b417a	-0.010452623
122	0xbd2edabc	-0.04268907
123	0xbbfcbe0b	-0.0077130846
124	0xbd6ee53b	-0.05832408
125	0xbd851223	-0.064976
126	0x3c91f20f	0.017815618
127	0xbd94630b	-0.072454534

linear.weight f4 [10, 2560]
0	0x3cf3933a	0.029733289
1	0x3cbff393	0.023431575
2	0x3c9596c6	0.018260371
3	0x3cb9d0b0	0.022682518
4	0xbcbfc5a0	-0.023409665
5	0x3c6d6282	0.014488818
6	0x3c09edee	0.008418543
7	0x3cc564ad	0.024095858
8	0x3b98b941	0.004660756
9	0xbcc5cdec	-0.024146043
10	0x3beb3507	0.007177952
11	0xbc26f5de	-0.010190455
12	0x3c3424d6	0.0109951105
13	0xbc8ef3e4	-0.01745028
14	0xbc364d62	-0.011126848
15	0x3ad08be3	0.001591083
16	0x3bfefd9d	0.007781698
17	0xbd27bb1a	-0.04094992
18	0xbb691f4e	-0.0035571638
19	0xbcd2598f	-0.02567747
20	0xbdbd1fcf	-0.09234583
21	0xbdc02641	-0.09382296
22	0xbdafb4f4	-0.08579436
23	0xbd596083	-0.053070556
24	0x3ca9bfac	0.02072128
25	0x3d1fb963	0.038995158
26	0x3d0ab116	0.03386029
27	0x3c7819aa	0.015142838
28	0xbca26441	-0.019823195
29	0xbd4fdc2a	-0.050747074
30	0xbd0409ef	-0.032236036
31	0xbcf18895	-0.029484073
32	0xbd314ee2	-0.04328812
33	0xbd0b99b9	-0.03408215
34	0xbd1412f1	-0.036150876
35	0xbd93e988	-0.07222277
36	0x3b4b37b1	0.0031008536
37	0xbba5c923	-0.0050593778
38	0xbb95ed68	-0.00457542
39	0xbc7ad3d3	-0.015309292
40	0x3ce4c508	0.027925983
41	0x3d182d81	0.03715277
42	0x3c00d0d5	0.007862289
43	0x3cd53937	0.026028259
44	0xb98b8a65	-0.00026615258
45	0xbb473066	-0.0030393838
46	0xbcb1a9e7	-0.021687461
47	0xbc44fec6	-0.012023633
48	0x3cafd86c	0.021465503
49	0x3cabeda8	0.020987347
50	0xbd094bde	-0.03351962
51	0xbc41a518	-0.011819147
52	0xbc881d5b	-0.01661556
53	0xbd0d8772	-0.034553
54	0xbcc256c7	-0.02372302
55	0x3ab2caad	0.0013640724
56	0xbcfa6ed9	-0.030570434
57	0xbb2ebfca	-0.0026664608
58	0xbd0188bf	-0.03162455
59	0xbd7474d1	-0.059681717
60	0x3c8ad4d9	0.016947197
61	0x3cd0b4d9	0.02547686
62	0x3c307a18	0.010771297
63	0x3c985beb	0.018598517
64	0x3c743629	0.014905491
65	0x3c789a25	0.01517347
66	0xbc66027f	-0.014038681
67	0x3cd4f7ef	0.02599713
68	0xbb860626	-0.0040900884
69	0xbcdaa852	-0.02669159
70	0xbd2a5d91	-0.041593138
71	0xbc288ece	-0.010287954
72	0x3c280ed1	0.010257439
73	0xbc1fe2e0	-0.009758681
74	0xbd02ad62	-0.031903632
75	0xbd337c10	-0.043819487
76	0xbcbcefa1	-0.023063483
77	0x3bdc5ebd	0.006725161
78	0xbbe4428a	-0.00696594
79	0x3c68e5a8	0.014214911
80	0xbc1faf69	-0.009746411
81	0xbce1177c	-0.027477019
82	0xbc784c3d	-0.015154895
83	0x3b93f861	0.004515693
84	0xba90bb2d	-0.0011042111
85	0x3cd675cb	0.026179215
86	0x3cd22419	0.025651978
87	0x3c0d3c6b	0.008620362
88	0xbd1a7826	-0.03771224
89	0xbcd15369	-0.025552468
90	0xbd22a925	-0.03971209
91	0xbcc53e18	-0.02407746
92	0xbbb555a0	-0.005533889
93	0x3c3dd6ef	0.011586889
94	0xbcb234dd	-0.021753723
95	0xbca4b3ed	-0.020105327
96	0x3c110673	0.008851635
97	0xbc2a8834	-0.01040845
98	0xbc776d53	-0.0151017485
99	0xbb8ff518	-0.004393231
100	0x3cc925a7	0.024554087
101	0x3c20c6d2	0.009813027
102	0x3c8abc3e	0.016935464
103	0xba47843a	-0.0007610951
104	0x3cb7a2da	0.02241652
105	0x3bbbad1a	0.0057274224
106	0x3d0599a3	0.032617223
107	0x3c26bb3f	0.010176479
108	0x39fb0960	0.00047881436
109	0x3bb5f2ca	0.0055526244
110	0x3c9ece11	0.01938537
111	0x3c398244	0.011322562
112	0xbc615d69	-0.013755181
113	0xbcbad0e8	-0.022804692
114	0x3c99ddde	0.018782552
115	0x3c7fe882	0.015619399
116	0xbb8c31c2	-0.0042783925
117	0xba31d93c	-0.00067843846
118	0xbc0e836d	-0.008698327
119	0xbc8c4768	-0.017123893
120	0x3c8dc97d	0.017307991
121	0x3cc7e4ad	0.024401033
122	0x3c06b761	0.008222432
123	0xbbbfba5d	-0.0058510737
124	0x3c66f802	0.014097216
125	0xbcabd3e1	-0.020975055
126	0xbd45eafd	-0.048319805
127	0xbd0f3a17	-0.03496751
128	0xbc55568e	-0.0130211245
129	0x3adc0dee	0.0016788819
130	0xbc67478c	-0.014116179
131	0xbce03076	-0.027366858
132	0x3b0e1162	0.0021677841
133	0xbc56127e	-0.013065932
134	0xbc319644	-0.010839049
135	0xbc9c95d8	-0.01911442
136	0x3a88668b	0.0010406537
137	0xbce36be6	-0.02776141
138	0xbd4ef390	-0.050525248
139	0xbc294f08	-0.010333784
140	0x3cf0c650	0.029391438
141	0x3c8de35d	0.01732033
142	0x3cf44327	0.029817177
143	0x3c8f22c0	0.017472625
144	0x3c1e9448	0.009678908
145	0xbc87c584	-0.016573675
146	0x3c2a2d4b	0.010386775
147	0x3a4f31ce	0.0007903845
148	0xbbb55ff4	-0.00553512
149	0x3c8c4546	0.017122876
150	0xbc23ff6e	-0.01000963
151	0xbc547cf0	-0.012969241
152	0xbc82cc7e	-0.01596665
153	0xbc8d38de	-0.01723903
154	0x3a953d91	0.0011386146
155	0xbc0444df	-0.008073061
156	0xbc9296af	-0.017894117
157	0xbcb84824	-0.022495337
158	0xbcfe7786	-0.031062853
159	0xbba4a8d9	-0.005025011
160	0xbc459517	-0.012059472
161	0x3c52b307	0.012860066
162	0x3ce53fab	0.02798446
163	0x3ceb2a81	0.02870679
164	0x3d0c6e49	0.034284864
165	0x3aab0240	0.0013046935
166	0xbb81d214	-0.003961811
167	0xbc194944	-0.009355847
168	0xbcc88a6c	-0.024480067
169	0x3a914b5a	0.0011085079
170	0xbcbe1a52	-0.02320591
171	0xbd120f58	-0.035659164
172	0xbc81854f	-0.015810637
173	0x3bdb8a73	0.006699854
174	0xbc99595f	-0.018719373
175	0x3b8cf289	0.0043013734
176	0xbca78cf0	-0.020452946
177	0xbcdc964d	-0.026927138
178	0xbd0005fe	-0.031255715
179	0xbc3a590f	-0.011373772
180	0x3cd6c03e	0.026214715
181	0xbb0a4b90	-0.0021102168
182	0x3c009129	0.007847109
183	0xbbc8c5d2	-0.0061270976
184	0xba9018d7	-0.0010993731
185	0xbcfad938	-0.030621156
186	0xbba9d3e7	-0.0051827314
187	0x3c7394ea	0.014867047
188	0xbb995925	-0.0046798163
189	0xbc0211c2	-0.007938804
190	0xbbb229f6	-0.005437131
191	0x3c7099b7	0.014685086
192	0xbc291282	-0.010319354
193	0xbbd571a8	-0.006513793
194	0x3b7cf1ee	0.003859635
195	0xbb8e0c47	-0.0043349597
196	0xbc51d73a	-0.012807662
197	0x3b31d9b5	0.002713782
198	0x3cc7fec5	0.024413476
199	0x3c894677	0.016757233
200	0x3d0e383c	0.034721598
201	0x3c285832	0.010274934
202	0xbcc4f5a8	-0.02404292
203	0xbd08b71e	-0.03337776
204	0xbb6d5590	-0.003621433
205	0x3ca91edd	0.0206446
206	0xbb284378	-0.002567498
207	0x3c32a4de	0.010903565
208	0x3ba70d93	0.0050980537
209	0xbbc8b6ff	-0.0061253305
210	0xbcd07eff	-0.025451181
211	0xbc4bce9c	-0.012439396
212	0xbbd80f7e	-0.0065936437
213	0xbbe36594	-0.0069395993
214	0xbc90106b	-0.017585954
215	0xbd0cdd37	-0.034390654
216	0x3ae4db94	0.0017460459
217	0xbba51c6e	-0.0050387895
218	0xbc25e789	-0.010126003
219	0xbcc3af0f	-0.023887185
220	0x3c77d047	0.015125341
221	0x3cbf0ae2	0.023320619
222	0x3b94920e	0.0045340126
223	0x3c519540	0.012791932
224	0xbc4edc2a	-0.012625733
225	0x3c14f2b5	0.009091069
226	0x3b8b1793	0.0042447536
227	0x3cd4d2b8	0.025979385
228	0x3c85cbb8	0.016332492
229	0xbcc0e6ab	-0.023547491
230	0x3b69c1f5	0.0035668586
231	0xbc1c2e19	-0.009532475
232	0x3b80de6c	0.0039327648
233	0xbc2fde51	-0.010734157
234	0x3ceee116	0.029160064
235	0x3c705b38	0.014670186
236	0x3c7fe689	0.015618929
237	0x3b06d18b	0.0020571675
238	0x3cc7ed1d	0.024405057
239	0x3cf8aced	0.030355895
240	0x3d090e48	0.033460885
241	0x3c8fc3b0	0.017549366
242	0x3b912fd1	0.004430749
243	0x3bf7a900	0.007557988
244	0xbc04d101	-0.008106471
245	0xbc7c28ef	-0.015390619
246	0x3b966bee	0.004590503
247	0x3ca0c600	0.019625664
248	0x3a31b070	0.00067783054
249	0xbc195945	-0.009359662
250	0x3c598bfa	0.013278002
251	0x3b730b3e	0.0037085558
252	0x3b7c8783	0.003853292
253	0x3b6a0d70	0.0035713576
254	0x3c6c5bec	0.014426213
255	0x3973df03	0.00023257364

linear.bias f4 [10]
0	0xbccadd10	-0.024763614
1	0xbd92337e	-0.071387276
2	0x3cd974e8	0.026545003
3	0xbd3bd34b	-0.0458558
4	0xbd404049	-0.046936307
5	0xbd112b3b	-0.03544162
6	0xbd933e76	-0.07189648
7	0xbd3871b7	-0.045030322
8	0x3d78ca59	0.06073985
9	0xbd2955ad	-0.041341472
